model/model.pth (torch, 8595 bytes, 4 tensors)

fc1.weight f4 [256, 1]
000000 46 14 0f 3f 20 66 3f 3f 84 26 bf 3e e6 f1 0d bf
       0.5589031 0.74765205 0.37334073 -0.5544723
000010 40 df f3 3d b0 bd 67 bf ee e4 64 bf f2 a9 0e bf
       0.11907816 -0.90523815 -0.8941182 -0.55728066
000020 00 80 55 bc b8 01 e0 3e ba 80 31 3f 02 19 4c bf
       -0.013031006 0.4375131 0.69337046 -0.7972566
000030 ac da 41 3f 74 8e eb be 4c 21 cb be a8 99 01 3e
       0.7572429 -0.4600712 -0.3967384 0.12656271
000040 fe bd 6e bf 5c 66 64 3f ec be 8c 3e 10 b5 a4 3e
       -0.93258655 0.8921869 0.27489412 0.3216939
000050 48 22 57 3e ae bd 33 3f a0 da 0e 3e 66 be 68 bf
       0.21009171 0.70211303 0.13950586 -0.90915525
000060 06 9a 39 3f 40 c2 fa 3d 64 56 9b be c6 4a 08 bf
       0.72500646 0.122440815 -0.30339348 -0.53239095
000070 5a 15 27 3f 8e 70 2e 3f 70 17 e1 be 12 f6 72 3f
       0.65266955 0.68140495 -0.43963194 0.94906723
000080 50 4e 6a bf c8 a4 0b 3e 4a f4 48 3f 80 59 ac 3e
       -0.91525745 0.13637078 0.78497756 0.33662033
000090 e8 15 77 bf 80 9d 73 3e 4e 80 4b bf 62 32 27 3f
       -0.965178 0.2379055 -0.7949265 0.65311253
0000a0 a0 d8 2e be 68 69 79 bf 30 f1 d5 bd 8e 55 0e bf
       -0.17074823 -0.9742646 -0.104463935 -0.55599296
0000b0 9c 3f 77 3f 16 70 12 bf f0 b5 9d bd c8 5b 0c 3f
       0.96581435 -0.5720228 -0.077007174 0.5482755
0000c0 28 ae 4c 3e 7a 77 2f bf 70 c8 f1 be 70 3f 0e 3f
       0.1998831 -0.6854168 -0.47223234 0.5556555
0000d0 e0 91 dd 3e 5a f8 0d 3f c4 e2 aa 3e 9a 23 52 3f
       0.43275356 0.5545708 0.33376133 0.82085574
0000e0 72 7f 74 bf 00 57 e8 bc 7a 35 46 3f ea dc 19 bf
       -0.95506966 -0.028361797 0.7742535 -0.60102713
0000f0 2c 46 c2 3e d0 e0 29 3f 7a ff 25 3f 5a f9 7f 3f
       0.37944162 0.6635866 0.6484295 0.99989855
000100 5c ac ac 3e 00 d2 d3 bb 52 25 76 3f 1a 04 52 bf
       0.3372525 -0.006464243 0.96150696 -0.8203751
000110 d8 75 25 be 30 d2 0e bf 4a c6 36 bf 24 d2 45 bf
       -0.16158235 -0.5578947 -0.71396315 -0.77273774
000120 30 85 a0 be 40 1d 82 bd 5c 67 24 bf c0 fb d0 bd
       -0.31351614 -0.06353235 -0.64220214 -0.102042675
000130 1e d6 20 3f e8 ff fd be c8 d3 82 3e 56 16 00 bf
       0.62826717 -0.49609303 0.255522 -0.5003408
000140 60 8a 34 bd 10 92 d5 3e 7a 7d 74 bf c0 91 7e bd
       -0.044077277 0.41713 -0.9550396 -0.062150717
000150 b8 87 cf be c4 33 c2 3e c4 02 71 3f 08 28 ef 3e
       -0.40533233 0.3793012 0.94144845 0.4671023
000160 26 24 2d bf fe 93 21 bf 10 b4 fa 3e f0 70 60 bf
       -0.67633283 -0.63116443 0.48965502 -0.8767233
000170 00 6a 21 bd 80 86 cf be 7a fd 11 3f 10 d2 71 3f
       -0.03940773 -0.40532303 0.570274 0.94461155
000180 28 5a 19 be 72 6c 06 3f b4 dc ed 3e 64 b3 36 3f
       -0.14975798 0.52509224 0.46457446 0.7136748
000190 cc e0 5d 3f 7c 6c 83 be bc e7 63 3f c8 64 c7 be
       0.8667114 -0.25668705 0.89025474 -0.38944077
0001a0 78 b5 a6 3e ba d2 20 bf 14 d2 67 bf c2 57 0e bf
       0.32560325 -0.62821543 -0.9055493 -0.5560266
0001b0 04 a5 72 3f d4 b0 74 3f 36 32 72 bf 04 a7 ac 3e
       0.94783044 0.9558232 -0.94607866 0.33721173
0001c0 22 4d 5f 3f e2 f1 7c 3f bc 09 64 bf a4 91 52 bf
       0.8722707 0.98806584 -0.89077353 -0.8225348
0001d0 ee 1a 67 3f 1e bb 66 3f cc ce b3 be 40 fd 32 3f
       0.90275466 0.9012927 -0.3511871 0.6991768
0001e0 18 9e 1d bf e0 f2 a4 3e 4e 51 39 bf 88 2d ae be
       -0.61569357 0.3221655 -0.72389686 -0.34019113
0001f0 98 cb 64 3f d0 d0 ba be c8 74 0b 3f 60 13 0d 3d
       0.8937316 -0.36487436 0.5447507 0.034442306
000200 7c 30 91 be 80 8b c7 bc 00 c8 ad ba 2c c5 35 3f
       -0.28357303 -0.024358511 -0.0013258457 0.71003985
000210 74 8d 63 3f ac 11 8c 3e 9a 03 63 bf 80 3e 9a be
       0.88887715 0.27357233 -0.8867737 -0.3012581
000220 a4 df 5c 3f 98 c7 5d bf 84 3f ae be a0 51 be 3e
       0.8627875 -0.8663268 -0.34032834 0.3717165
000230 46 f0 48 bf f4 25 5e bf 46 91 5d 3f 20 1f 1b 3d
       -0.7849163 -0.8677666 0.86549795 0.03787148
000240 ee 14 75 3f ec 43 42 3f c4 47 04 bf c8 f4 e1 be
       0.9573506 0.7588489 -0.51672006 -0.44132066
000250 04 47 97 3e 0c 3b 13 bf cc 80 4f bf 8e e0 3a 3f
       0.29546368 -0.57511973 -0.81055903 0.72998893
000260 a6 10 5c 3f 26 0c 6e 3f a8 c1 34 3e 9c 71 fe 3e
       0.85962903 0.9298729 0.17651999 0.49696052
000270 3c 40 84 3e 00 44 99 3b 34 a2 be be 8c 96 2c 3f
       0.25830257 0.0046772957 -0.37233126 0.67417216
000280 46 4c 23 bf 54 cb 65 3f d2 bf 4f 3f 5a 47 1e bf
       -0.6378826 0.8976338 0.8115207 -0.61827624
000290 8e 15 4d 3f 80 4c 21 bc 2c 08 f5 be 94 e9 42 3f
       0.80111015 -0.009844899 -0.47857797 0.7613766
0002a0 00 76 32 3e 00 14 bf bd d4 43 f6 3e 06 43 37 bf
       0.17427826 -0.093299866 0.48098624 -0.71586645
0002b0 40 ca 41 bf 70 cd 9e 3e 60 58 47 bd 28 6d 5c 3f
       -0.75699234 0.3101611 -0.048668265 0.8610406
0002c0 3a 1b 3e 3f 4e 9a 13 3f c8 26 ac be b0 64 80 be
       0.74260294 0.57657325 -0.33623338 -0.25076818
0002d0 d0 8a 63 3e 48 21 e8 be 84 c1 67 bf 02 fe 4f 3f
       0.22220922 -0.45337892 -0.90529656 0.8124696
0002e0 d8 f1 71 be d6 f8 2d bf f2 67 0b 3f 2c ec 0a bf
       -0.23627412 -0.6795782 0.5445548 -0.5426662
0002f0 68 dc 27 3e 10 df 10 bf 82 b9 7e bf a8 bd b6 3e
       0.16392672 -0.56590366 -0.9950181 0.3569157
000300 20 29 96 be a0 36 27 3f 74 a6 06 bf a0 c3 ba bd
       -0.2932825 0.65317726 -0.5259774 -0.09119344
000310 38 17 71 3e c8 17 74 be fa a5 35 3f 00 8b 54 3c
       0.23544014 -0.23837197 0.70956385 0.012972593
000320 c0 15 c7 3d 48 6f a4 3e ca fc 1d 3f 54 92 0b 3f
       0.09720945 0.3211615 0.6171385 0.54520154
000330 e4 96 a8 be c0 29 c0 3e c4 9c 57 3f 70 0d 9a 3e
       -0.3292762 0.37531853 0.8422358 0.30088377
000340 78 0b ee be 40 95 7e bf 1e 5e 00 bf 7a 8b 77 bf
       -0.46493125 -0.9944649 -0.5014361 -0.966972
000350 10 d4 1e bf 98 ba 77 3f 40 f9 b1 bd 88 5e 6c 3e
       -0.6204233 0.96769094 -0.08690119 0.23082936
000360 8c 3c a7 3e 7a 43 25 bf c0 4f 03 3d b4 52 be be
       0.3266338 -0.64556086 0.032058477 -0.37172472
000370 da e5 43 bf 00 f1 6a 3e a8 9a 19 3f d8 93 70 bf
       -0.765226 0.22943497 0.6000161 -0.9397559
000380 b8 06 89 3e 58 7c 87 be d6 34 6d bf 56 fc 06 bf
       0.26762938 -0.26462054 -0.92658746 -0.52728784
000390 aa 92 22 3f 40 33 59 bf 50 d2 ef bd 70 96 64 bf
       0.6350504 -0.84843826 -0.11710036 -0.8929205
0003a0 d8 ac 87 3e 30 18 f0 3e 00 97 c1 3d cc 71 b3 3e
       0.26499057 0.46893454 0.09452629 0.35047758
0003b0 28 ce 05 be 58 54 19 bf 08 9b 1d bf 36 b9 5c 3f
       -0.13066924 -0.59894323 -0.61564684 0.8622011
0003c0 b2 6a 38 bf bc bc 99 be a4 77 e6 3e c0 2e 6f 3f
       -0.72037804 -0.30026805 0.45013154 0.9343071
0003d0 88 3f f6 be 0a bf 6b bf 52 c3 2a bf 30 54 60 bf
       -0.48095345 -0.9208838 -0.66704285 -0.8762846
0003e0 e2 69 73 3f b4 08 2e bf 60 c1 44 bf 80 78 05 3c
       0.9508344 -0.6798203 -0.76857567 0.008146405
0003f0 36 a9 61 3f be 2a 3b bf e8 5f 04 3f 9e 05 12 bf
       0.8814882 -0.73112094 0.5170884 -0.5703982

fc1.bias f4 [256]
000000 c8 94 17 be 38 bd eb be db df 2a 3f 00 b6 21 bf
       -0.1480285 -0.460428 0.66747826 -0.63168335
000010 90 f2 ba bd 1e fe 0f bf 98 55 f6 be e4 25 10 bf
       -0.091282964 -0.5624713 -0.48112178 -0.56307817
000020 ee 75 c9 3e be 50 b7 3e 00 56 f5 bd d2 9f 1c bf
       0.39347786 0.3580379 -0.11979294 -0.61181366
000030 d3 b9 ca 3e c2 43 41 3f a7 4c c3 3e 44 95 db 3e
       0.39594898 0.75494015 0.3814442 0.42887318
000040 b8 e4 66 be 13 d5 78 3f 79 70 82 3f ac 1a 70 bf
       -0.22548187 0.97200125 1.0190574 -0.937907
000050 16 bd 5d bf c3 1b 2d 3f 09 0f d5 3e 38 a2 7e 3f
       -0.8661665 0.67620486 0.41613033 0.99466276
000060 50 3f 11 bf 90 5d 34 bf bd 28 5b 3c 34 f1 b8 be
       -0.5673723 -0.70455265 0.013376412 -0.36121523
000070 74 76 30 bf ec ac b1 be 68 86 70 be e4 1b ac 3e
       -0.68930745 -0.3470224 -0.23488772 0.3361503
000080 b6 8f 57 3f 4a 56 5e bf aa 7a 0e bf 95 dd 36 3f
       0.8420366 -0.86850417 -0.5565592 0.7143186
000090 4b 14 7a 3f 7e 79 02 3f 25 1f 86 3e ec db 32 bf
       0.97687215 0.5096663 0.26195636 -0.69866824
0000a0 68 33 65 be 3a c2 28 bf bc 7e 3d bf 40 b8 95 bd
       -0.22382891 -0.65921366 -0.74021506 -0.073105335
0000b0 5f 10 6f 3f a9 2e 50 3f 80 83 d8 bc 47 aa 81 3f
       0.93384355 0.813212 -0.026429892 1.013009
0000c0 a7 e5 54 3e b9 df 3e 3f 32 ca b1 3e 2a 3c 20 bf
       0.2079073 0.74560124 0.34724575 -0.62591803
0000d0 7c aa 39 bf d4 cc d7 3e c8 fc 81 be 31 c4 4f 3e
       -0.72525764 0.4214846 -0.2538817 0.20289685
0000e0 05 37 ca 3e 6c 39 11 3e 24 23 b4 be e7 15 1a 3f
       0.39495102 0.14182061 -0.3518306 0.6018967
0000f0 02 8b 40 3f 80 fa e5 bc 84 f4 a7 be ce db 61 bf
       0.7521211 -0.02807355 -0.32803738 -0.8822602
000100 c8 83 a3 be 47 4b ac 3e e1 b1 fa 3d 48 7d 85 3e
       -0.3193648 0.33651182 0.12240959 0.26072145
000110 28 3b 86 be 40 d2 c8 bd a6 5e 34 bf b0 72 5f 3f
       -0.26217008 -0.09805727 -0.7045692 0.87284374
000120 d3 4b 28 3e 36 58 1e bf 2b 6c 5d 3f 99 c7 b2 3e
       0.16435175 -0.6185335 0.86493176 0.34917906
000130 bf e6 ed 3e 80 39 0a be 71 d4 44 3f e0 fe ba be
       0.46465108 -0.13498497 0.7688666 -0.3652258
000140 e0 ab b8 3d 30 9f 5d be 78 90 7b bf 80 b4 b7 bd
       0.090171576 -0.21642756 -0.98267317 -0.089699745
000150 20 56 57 bd 4a 98 28 3f 74 3f 5a bf 4e d5 c9 3e
       -0.05257237 0.65857375 -0.8525307 0.3942055
000160 4b 65 4e 3f 7c 0b 76 bf 80 45 90 bd 0a 4e 30 3f
       0.8062331 -0.96111274 -0.07044506 0.6886908
000170 de bd 21 3f f4 8c a6 be f7 35 9d 3d 9e 96 03 bf
       0.6318034 -0.32529414 0.076763086 -0.514017
000180 92 c4 0d 3f 56 41 b8 3e a7 ae 04 3f f6 d3 14 bf
       0.5537807 0.35987347 0.51829 -0.58135927
000190 98 f4 49 bf 6c 25 cd be 04 8d 15 bf ab 5e 97 3e
       -0.78888845 -0.40067613 -0.584183 0.29564413
0001a0 9a 2f 72 bf e8 0c df be cb f5 80 3f 20 ed e4 bd
       -0.94603884 -0.43564534 1.007501 -0.111780405
0001b0 99 7d 0f 3f 68 43 5e bf 37 ce 76 3f 55 fd fc 3d
       0.5605102 -0.86821604 0.9640841 0.12353007
0001c0 0a f5 3b 3f 62 ee c8 3e a6 47 d8 3d 88 3b 59 bf
       0.73420775 0.39244372 0.10560541 -0.8485646
0001d0 3c 95 38 bf a4 72 1d bf ce 9d 21 bf e5 43 ba 3e
       -0.72102714 -0.6150305 -0.63131416 0.36379924
0001e0 7e 54 e5 3e 3c 70 0a bf 5c da a7 be f0 48 dd bd
       0.44791025 -0.54077506 -0.32783782 -0.10804927
0001f0 b3 46 d3 3e be 67 43 bf 3e 7c 15 bf a8 56 3c be
       0.41264877 -0.76330173 -0.58392704 -0.18392432
000200 d0 fb b1 be e2 18 4b 3f 24 8a a7 3e f9 11 33 3f
       -0.3476243 0.79334843 0.3272258 0.699493
000210 a8 a8 7d be de 26 4d bf e0 47 22 bf 88 59 20 be
       -0.24771369 -0.8013743 -0.6339092 -0.15659153
000220 02 9c 67 bf f1 87 6b 3f 60 0c 2a 3f 90 0a 09 be
       -0.90472424 0.92004305 0.6642513 -0.13382936
000230 7f 44 2a 3f e8 a0 c1 be c0 bf 57 be 1a 9d 7c bf
       0.66510767 -0.37818074 -0.2106924 -0.9867722
000240 a9 9c b5 3d 30 e5 99 bd c7 01 39 3f 90 c2 2d be
       0.08867771 -0.07514417 0.72268337 -0.16968751
000250 bc 78 c9 be 9f 00 4a ba f0 54 d4 be 6c d3 be be
       -0.39349926 -0.0007705781 -0.41471052 -0.37270677
000260 2c 68 a8 be 7b 64 33 3f eb 12 da 3e 7b 47 d2 3e
       -0.32891977 0.70075196 0.42592558 0.4107016
000270 06 54 26 bf c8 dc 86 be 78 34 6c bf af e9 14 3e
       -0.6497196 -0.26340318 -0.9226756 0.14542268
000280 61 61 9d 3e 92 63 43 3d a8 2d 29 bf 9c e7 13 bf
       0.30738357 0.04770238 -0.6608529 -0.5777528
000290 ac 23 b7 be 0c 4f f8 3e b0 4d ae bd 5e bf 0a 3d
       -0.35769403 0.48497808 -0.085109115 0.03387391
0002a0 38 f8 9b be f2 38 2e bf 2c 0a 4e bf 4d 04 b2 3e
       -0.30462813 -0.6805564 -0.8048427 0.34768906
0002b0 01 3e a1 3e 28 67 92 be 60 a4 08 bd 1e 70 29 bf
       0.31492618 -0.28594327 -0.033359885 -0.661867
0002c0 a5 0f 0e 3e 28 44 55 be 6c 50 3e 3e 4d 65 ba 3e
       0.13873155 -0.20826781 0.18585366 0.3640541
0002d0 10 b5 b2 be 38 7e 38 3f aa ec 12 bf 80 8c bc bc
       -0.34903765 0.72067595 -0.5739237 -0.023016214
0002e0 c7 2c 1e 3f 50 7f 11 3f 38 80 d0 be ae cb 41 bf
       0.61787075 0.5683489 -0.40722823 -0.75701416
0002f0 e2 c7 4f bf bd be 14 3f 57 bd 25 3f 30 65 0c be
       -0.8116437 0.58103544 0.64742035 -0.13710475
000300 1a 5a 66 bf 4b d3 65 3e 3b cc 20 3f 4b 74 c0 3e
       -0.89981234 0.22443883 0.6281163 0.37588724
000310 c0 bf 9a 3e d0 ef 95 bd 0c 3e 58 bf d0 3c 32 be
       0.3022442 -0.07321131 -0.84469676 -0.1740601
000320 4c 37 cc 3e fc fe 81 3f 60 ea 77 be 9e 19 81 3f
       0.39885938 1.015594 -0.242105 1.0085943
000330 ac 40 60 bf 9d 6f 87 3d aa 93 3f bf 30 bf 11 3f
       -0.8759868 0.066130854 -0.7483469 0.56932354
000340 44 3f 3d 3e b8 44 2e 3e 6c 05 f3 be 74 96 24 3f
       0.18481165 0.17018402 -0.47465074 0.64292073
000350 e2 75 41 bf f4 6b 05 3f bc 2d 86 be f6 3b 71 3f
       -0.755705 0.5211785 -0.26206768 0.9423212
000360 00 96 37 bb d0 a8 87 be ac b8 64 3f 72 1f 49 bf
       -0.002801299 -0.2649598 0.89344287 -0.78563607
000370 a3 c3 47 3f 9c 5b 98 be 86 50 0a 3f 30 64 31 3f
       0.7803289 -0.29757392 0.5402912 0.692935
000380 69 fd b4 3e 1a 05 72 3e ec b4 9f be 40 52 c1 be
       0.35349587 0.23634759 -0.3119272 -0.37758064
000390 fb 7f ad 3d f4 b3 f4 be e0 9a 06 3f c6 b1 69 3f
       0.08471676 -0.47793543 0.5258007 0.91286886
0003a0 2c 8c c8 ba 33 e0 30 3f ab 4c b5 3e b0 af 83 bd
       -0.0015300564 0.690921 0.35410056 -0.06429994
0003b0 68 e7 39 bf 90 a6 c3 be 89 6b 88 3e c0 1b b0 bd
       -0.7261872 -0.38213015 0.26644543 -0.08599043
0003c0 c2 0f cc 3e 44 e7 e4 be 70 76 cf be d4 63 ba 3e
       0.39855772 -0.44707692 -0.40520048 0.36404288
0003d0 40 6b 61 bf d1 9a 34 3f 4c d0 8e be 75 c8 6a 3f
       -0.88054276 0.7054873 -0.27893293 0.91712123
0003e0 02 6e 2d 3f be dd bc 3e e4 f7 2c bf 40 1a d0 bc
       0.67745984 0.36887926 -0.6756575 -0.025403142
0003f0 75 49 28 3e 2b 43 d6 3e 14 ea 17 3f e0 04 38 bd
       0.16434272 0.4184812 0.5934155 -0.044926524

fc2.weight f4 [5, 256]
000000 90 cd 00 3d 00 54 6c 3d e6 8b b0 bc d4 e5 d3 3c
       0.03144604 0.057697296 -0.021551084 0.025866427
000010 50 f7 cb 3c c2 83 16 bd f4 6b 00 bd 80 23 c6 ba
       0.024898201 -0.036746748 -0.031352952 -0.0015116781
000020 71 75 97 3a 8b e6 04 bd 50 fb b7 3c 2c 08 0b 3d
       0.0011555386 -0.032446425 0.022458702 0.03394334
000030 57 c6 b7 bd 49 79 db bc b7 09 5d bd 59 a9 ae bd
       -0.08973377 -0.026791232 -0.053964343 -0.08528394
000040 e0 ef b9 bc b6 96 a2 bd 7a 28 a8 bb 0e b0 54 bd
       -0.02269739 -0.07938902 -0.0051317783 -0.05192571
000050 40 1b e8 3b c0 b6 55 bd 59 c4 88 bc d8 d9 93 bd
       0.0070833266 -0.052176237 -0.016695188 -0.07219285
000060 c0 97 89 3c 8e a2 1c 3d 2d 8a 3b bc 40 38 42 bc
       0.016795993 0.03824096 -0.011446518 -0.011854231
000070 5e 4d 51 3d 3a 02 10 3d f0 a8 5b 3d dd 85 47 bd
       0.051099174 0.035158373 0.05362791 -0.048711646
000080 2f 0c 1c bc 4a 2f 58 3d e4 86 cf 3c 15 d8 33 bd
       -0.009524389 0.052779473 0.025332876 -0.043907244
000090 4c b1 22 3c f1 b6 b1 bd 4c 14 8d bd f0 2f 72 bd
       0.009929966 -0.086774714 -0.06888637 -0.059127748
0000a0 a6 c9 13 3d 38 b3 4a 3c 36 c4 52 3d 4e b1 31 3d
       0.03608098 0.012371831 0.051456653 0.04338198
0000b0 cb c2 83 bd ee fb b0 bd 80 6b 3f ba 7e 46 9b bc
       -0.06433638 -0.08641802 -0.00073020905 -0.018954512
0000c0 52 dc df 3b 5e 78 f2 3c 8d d5 50 bc 5e b3 2f bd
       0.006831684 0.029598411 -0.012746227 -0.042895667
0000d0 78 11 cc bc 09 10 83 3c 98 f8 11 3d 97 85 67 bc
       -0.024910673 0.015998857 0.035637468 -0.014130971
0000e0 00 e2 3d bc 82 ae 27 bd de f7 3b bd a8 ba ba bc
       -0.011589527 -0.040937908 -0.04589068 -0.022794083
0000f0 f3 c1 a5 bd 38 ea 74 bc e0 45 58 bd e8 61 89 3c
       -0.080936335 -0.01494842 -0.052801013 0.016770318
000100 5c 85 88 3c 6a d7 49 bd c2 ec 48 bc e1 31 ae bd
       0.016665153 -0.0492777 -0.012263479 -0.085056074
000110 74 07 b4 3c 28 71 10 3c a4 61 3d bd e0 1f 3a bd
       0.02197621 0.008816041 -0.046235695 -0.045440555
000120 38 92 45 bd 2c c6 8b bc 93 e5 b2 bd 2d a0 98 bd
       -0.04823515 -0.01706227 -0.08735194 -0.07452426
000130 31 75 c3 3b 34 4c a4 bc cf e6 91 bd 30 d2 88 bc
       0.005964898 -0.020055868 -0.07124101 -0.016701788
000140 34 88 de 3a 80 6d 4b bd 32 e4 1b 3d 46 03 6f bd
       0.0016977848 -0.049664974 0.03805942 -0.05835273
000150 6a 04 4e 3d 3a d8 d3 3c a4 8d d7 3c 83 4f 34 bd
       0.05029718 0.02585994 0.026312657 -0.04402114
000160 8e b3 f1 bc 20 a3 11 bb a0 b7 a5 3b 99 f4 b1 bd
       -0.029504564 -0.0022222474 0.00505729 -0.086892314
000170 5e 19 93 bd 74 0b be bc 1a b1 be bd 14 bd f0 3c
       -0.07182573 -0.02319882 -0.09311123 0.029387034
000180 32 c8 b6 bd ac ad 6f bd b7 c7 dc 3b 28 6a e5 3c
       -0.08924903 -0.058515236 0.006737675 0.02800472
000190 60 7c 0a 3b f8 a0 0b bd e0 e1 45 bb 87 86 b8 bd
       0.0021131262 -0.03408906 -0.0030194446 -0.09010034
0001a0 50 05 e3 bb 98 39 09 bd 73 d5 82 bd 00 00 4b 38
       -0.0069281235 -0.03350219 -0.063883685 4.839897e-05
0001b0 b9 b5 50 bd 82 68 16 bd 66 de 3c 3c 4b 1c 71 bd
       -0.050954554 -0.03672076 0.011527633 -0.058864873
0001c0 a4 c1 6e bd dd 09 2d bd 29 f6 28 bd a0 53 ac 3b
       -0.05829014 -0.042245734 -0.04125038 0.0052589923
0001d0 04 a6 df 3c 00 a7 d9 39 5e fb 7c 3d c7 03 9a bc
       0.027300842 0.0004151389 0.06176316 -0.01880063
0001e0 2b de 8c 3c 90 9e 92 bc 3c e1 aa bc 48 da f3 bc
       0.017195782 -0.017897874 -0.020859353 -0.02976717
0001f0 91 88 91 bd 28 b7 22 bc a2 22 45 3d d0 cf ac bb
       -0.07106126 -0.009931363 0.04812873 -0.0052737966
000200 80 be cb ba 4d 30 da bc 33 48 e2 bc 2f e9 7e bd
       -0.0015544444 -0.02663436 -0.027622318 -0.0622341
000210 48 cb 1c bc 12 8e 3f 3d cc 62 75 3d ce 22 69 bd
       -0.00956995 0.04676635 0.059908673 -0.056917958
000220 80 34 5d 3b 3d ed 94 3c ef ee 04 bd b6 e5 5d bd
       0.0033753216 0.01817953 -0.032454427 -0.054174148
000230 8d 52 b6 bc 52 c0 73 bd 5c f2 7f bd 00 26 3a 3d
       -0.02225616 -0.059509583 -0.06248699 0.045446396
000240 7b 60 8c b9 60 8a b4 3b 1d 8d 50 bb d4 b6 4f bd
       -0.00026774764 0.0055096596 -0.0031822391 -0.050711468
000250 f8 dc 61 3d fb 30 e9 bc 40 d0 84 bb 5c 06 d2 3c
       0.055142373 -0.028465739 -0.0040531456 0.025637798
000260 e0 73 a7 bb 37 9a a8 bd b5 c1 8a bd 9d 99 79 bd
       -0.005110249 -0.08232539 -0.06775228 -0.060937513
000270 16 79 4f 3d da 88 54 3d 80 4b c6 ba de 13 ef bb
       0.050652586 0.051888324 -0.0015128702 -0.0072960695
000280 08 ec 07 3c 82 2d 18 bd 68 4f 7f bd 9c 38 6f 3d
       0.00829602 -0.037152775 -0.062331587 0.058403596
000290 68 88 56 bc bd 6a c6 3c 78 6c 15 3c 33 77 70 bd
       -0.013094045 0.024220819 0.009120099 -0.058707427
0002a0 3c d5 39 bd d0 25 fb bc 54 60 ad 3c 6b a2 95 bd
       -0.04536937 -0.030657679 0.021164097 -0.073063694
0002b0 c1 e3 83 bd 70 8c 50 3c 74 ae a8 bc 14 17 6e 3d
       -0.06439925 0.012728795 -0.020590998 0.058127478
0002c0 7c 92 a7 bc 00 88 f4 39 86 e4 0e bc 06 67 2b bd
       -0.020455591 0.00046640635 -0.008721476 -0.041846298
0002d0 34 fc 4b 3d 77 71 b6 bc 30 41 98 bc c2 00 09 bd
       0.049801067 -0.022270901 -0.018585771 -0.03344799
0002e0 68 9a eb 3c 80 e9 16 bd b2 f2 67 3d c0 6f f1 ba
       0.02876015 -0.036843777 0.056627937 -0.0018420145
0002f0 d8 35 5d bd 03 9f c5 3c f0 98 07 bd d8 47 70 3c
       -0.054006428 0.024123674 -0.033104837 0.014665566
000300 80 6d 1e 3a 48 4e 37 3b b6 f7 d2 3c a3 26 8f bb
       0.00060435385 0.0027970243 0.025752883 -0.0043686195
000310 28 26 64 3c 9e 34 1d bd 9e 79 12 bd 00 2d 31 3d
       0.013925113 -0.038380258 -0.035760514 0.043255806
000320 e7 dd 94 bb bb 91 43 bd 12 a2 6e bd 40 22 87 3b
       -0.0045430544 -0.0477464 -0.05826003 0.004123956
000330 70 63 97 3c f0 53 92 bd 70 84 76 bc 97 73 a0 bd
       0.018480033 -0.07144916 -0.015046224 -0.07834547
000340 e0 e2 84 bd d5 09 c0 bd 96 e4 0f bd 2f 52 9a 3c
       -0.064885855 -0.09376875 -0.035130106 0.018838016
000350 00 c6 59 3a 70 7a fa 3c 78 01 c4 3c 2b 49 96 3c
       0.00083073974 0.03057596 0.023926482 0.018345436
000360 54 2e 63 3d bc 2c eb bc 35 2c a3 3c 8c 38 01 bd
       0.055464104 -0.028707854 0.01991854 -0.031548068
000370 d5 10 3c bd 80 88 5d 3c 8a 41 79 bd 9e 32 94 bd
       -0.04591449 0.013521314 -0.06085352 -0.07236217
000380 04 76 73 bc a0 de 42 bd f0 ac e5 3c 88 2e 0d bc
       -0.01485968 -0.047575593 0.028036565 -0.008617051
000390 d8 2c 91 3b b0 82 e5 3c bc 74 9b bd de d4 ca bc
       0.0044303946 0.028016418 -0.07590625 -0.024759706
0003a0 6c 54 a2 3c 6d 39 ad bd 7a aa 9f bd 00 92 67 ba
       0.019815646 -0.08458219 -0.07796188 -0.00088337064
0003b0 74 39 c2 bc 64 c7 de bc 89 d6 11 3c c8 82 63 3d
       -0.023709036 -0.027194686 0.008901247 0.055544645
0003c0 68 4f 5a 39 50 14 48 bc b0 4f 20 3d 2a fe 6e bd
       0.00020819681 -0.012211874 0.039138496 -0.05834786
0003d0 e0 8b d1 3b 26 c9 bc bc e0 7c c3 bb 61 83 63 bd
       0.006394848 -0.023045134 -0.005965814 -0.055545215
0003e0 66 c6 d9 3c aa 45 06 3c c0 e3 f8 3b 88 9a 21 bc
       0.026583862 0.00819532 0.0075955093 -0.009863503
0003f0 9f 63 b4 bd ae 47 31 3c 29 a1 86 bd 50 9c c1 3c
       -0.08808064 0.010820312 -0.065737076 0.023634106

fc2.bias f4 [5]
000000 31 49 00 bd ef 04 3e bd 5c b9 36 bd 1b 9b bc bd
       -0.0313198 -0.046391424 -0.044610366 -0.092092715
000010 11 6c 7d bd
       -0.06187064
